tests/data/pytorch_model.bin (torch_old, 244862 bytes, 38 tensors)

distilbert.embeddings.word_embeddings.weight f4 [28996, 2]
00000000: a901 7b3c 6726 45bd f0ae 81ba e64f 28bd
00000010: eedc 74bc 06a5 9b3c 1906 703c bd04 dfbc
00000020: 101d 68bc 9e02 48bd 7eb1 9e3c 2557 8bbc
00000030: 96aa 9b3c 9fff 17bc 5086 5f3c 09be 9ebc
00000040: 56e8 863c 00f8 1fbc a7e9 88bc 7ce9 d83c
00000050: 16e4 053d 11e1 a0ba 2200 08bd 2a2c 6bbc
00000060: 5d19 353d 37cf a4bb 611a e43b d5b6 05bd
00000070: 6fab 783c aba8 5c3c 9ef2 eebc 1233 22bb
00000080: ede9 22bc 548f 08bc ef93 13bc c760 1c3d
00000090: ecda 5bbc ad73 4b3c 8fd2 ea3b 65ac 9cbc
000000a0: 1c36 6ebc c16a 52bb 3be4 a1bc 0fc5 41bc
000000b0: e1a2 1a3d 8c0c 843c f469 9d3b 5dc6 a2bb
000000c0: 7349 b3bc 8f1a dd3c 19cb 0abd bbde a73c
000000d0: f6fb 30bc d864 e03b 5d4b 0d3c 8b17 783b
000000e0: 83ba 8b3c c9ce 553b 06ba 703b c10c 513c
000000f0: dcaf f13b 0ea1 8438 a2d9 14bc fb46 9f3b
00000100: 0a68 5abc b4fa 9bbc 0152 c6bc d4db 0b3c
00000110: 485c 13bb 80fb 8bbb 1e74 1e3d dd4b b2bc
00000120: 1458 c23c e777 d43c af4a dcbb 27e8 c43c
00000130: 40af 49bc cfe3 263c e763 d03b 22b7 cfbc
00000140: 1fe6 8bbc ebbd 1b3c 2a66 393d fd15 09bd
00000150: 17b5 b7bc ff13 05bc 0365 013d 70df 913c
00000160: c4bc 823c 8450 113d 07cb 0cbd a554 e9bb
00000170: b9cd e8bc c6a0 363a 30ce 3ebd b420 36bb
00000180: 7089 403d fd49 7039 b0dc c53c 6ab3 cd3c
00000190: c953 363b 7eb5 72bb 2cb6 4dbc bb5e c63b
000001a0: 6d91 2f3c 269f a33c 57bd 16bc fb00 89bc
000001b0: 7b9a b03c f14b 20bd c7b0 c33b 0bcd 8b3c
000001c0: 0ddb b1bb 24fe 673c 14f9 26bc 4dc0 893b
000001d0: e519 ec3c 3be7 c63b 82d9 6abc 5331 f43c
000001e0: 72b0 56bc d878 cf3b 84c0 373c a99c 873c
000001f0: 59c6 673c ed54 473c a7a9 52bb f0fd 99bb
00000200: 0bae 273c d7a0 16bc a9f6 e93b 7220 933c
00000210: cad4 89bc c20e cfbb 9f58 94bc b008 24bc
00000220: 5976 64bc 4908 853c 3441 613c 3d8e 133d
00000230: 1c56 2b3b 4e53 5a3c d85b c23c 24b2 843b
00000240: 66e3 14bd c1f7 cbbc beac a2bb d986 c4b9
00000250: 6cbc 923c a76c 93bc a5cf 6fbc 06a4 803a
00000260: b35c 5d3c 413d e03c f257 d53a 89ae c9bc
00000270: 9eb6 eb3b f62f 8e3c 7262 47bc 897a 0b3d
00000280: 24cf af3b 1e85 bd3b 7236 0a3d 385e 61bb
00000290: 27da 37bc b95d 9c3c be78 7d3b 39c2 92bc
000002a0: c203 8abc 40ad a13c bd2d 263d ac00 f13b
000002b0: f0c1 e0bc a3ff 6dbc 9807 35bc 8a6a 043c
000002c0: 6e65 d4bc de8e c6bb 0a6c 853d a214 173c
000002d0: ef4f a3bc ffe7 84bc 9e8e 27bd 6b7d d6bc
000002e0: 6ed8 283b 6c47 cdbc c09f 7ebb 602a 11bc
000002f0: 6eee cc3c 80f1 833a 6d09 37bb d7e2 923c
00000300: b2ea 4bbc 30d6 6c3c f20e c1bc fe72 fdbb
00000310: 4918 adbc 00b6 9fbc 5b02 f0ba 3c99 cabb
00000320: 0450 49bc b912 9cbc 5971 1e3d 163f 88bc
00000330: 06b4 4b3d 845d bfbb 97cf e63c be0b 6abc
00000340: 04af 20bc a0aa f33c 2092 e63c 1601 05bb
00000350: ce0a 423c 6233 d3ba 6b3c 103b 9ed7 c0ba
00000360: 167e 1b3c 9441 8dbc ee19 67bc 593e cb3c
00000370: 855e 583a 3271 e93c 102e 9d3b d734 c4bc
00000380: dd9f e83b 767e 2a3c 446e 943c 0e3f 173a
00000390: 3976 4539 70ce 08bd 3d93 8a3b f755 94bb
000003a0: de72 9bbc 87a2 48bc 3c66 c5bb ab00 5bbc
000003b0: aff2 d13b 2632 4b3d d8c1 4ebc 792f b4bc
000003c0: caea 3ebd e2d6 9f3c 815e dd3b f52a e2bc
000003d0: b4ec 65bb 7893 adba 85a2 073c c9c2 15bc
000003e0: a095 97bc 20a2 a23c 192b 5dbc 64d9 40bb
000003f0: 4e1e 883a c95e f6bc b42e 803b 3067 fb3a
0.01532022 -0.048132326 -0.0009894054 -0.041091822 -0.014945252 0.018999588 0.014649891 -0.02722394
-0.014167085 -0.04883062 0.019371744 -0.017009327 0.01900224 -0.009277253 0.013642862 -0.019377725
0.016468208 -0.009763718 -0.016712977 0.026478522 0.032688223 -0.0012274106 -0.03320325 -0.014353791
0.04421364 -0.0050295847 0.0069611524 -0.032645065 0.015177592 0.013467948 -0.029168423 -0.0024749679
-0.009943468 -0.008334953 -0.009007438 0.03817823 -0.013418894 0.012417716 0.007166214 -0.019125173
-0.014539268 -0.0032107087 -0.01976215 -0.011826768 0.03775299 0.016119264 0.0048038904 -0.0049674944
-0.02188561 0.026990203 -0.033885095 0.020491948 -0.01080226 0.006847959 0.008623925 0.003785583
0.01705671 0.0032624474 0.0036731972 0.012759388 0.0073757004 6.324249e-05 -0.009085091 0.0048607565
-0.013330469 -0.019040443 -0.024209024 0.008536298 -0.0022485424 -0.0042719245 0.038684957 -0.02176469
0.02372364 0.02593608 -0.00672277 0.02403648 -0.012309849 0.01018615 0.0063595655 -0.02535588
-0.017077504 0.009505729 0.045263447 -0.033468235 -0.022425218 -0.008122443 0.031590473 0.017806739
0.015959151 0.035477176 -0.03437331 -0.007120686 -0.028418409 0.0006966706 -0.046583354 -0.0027790489
0.04700607 0.00022915746 0.024153084 0.025109965 0.0027820936 -0.0037034447 -0.01255564 0.006053773
0.010715825 0.019973349 -0.009200416 -0.0167241 0.021558037 -0.039134923 0.0059720012 0.017065546
-0.005427724 0.014159713 -0.010191221 0.0042038322 0.028820941 0.0060700453 -0.0143340845 0.029808676
-0.013103591 0.0063315444 0.011215333 0.016554194 0.014146411 0.012166244 -0.0032144578 -0.004699461
0.010234366 -0.009193621 0.00714 0.017959807 -0.016825099 -0.006318898 -0.018108664 -0.010011837
-0.013944232 0.016239302 0.013748456 0.03602432 0.0026143854 0.013325525 0.023725435 0.0040495563
-0.036349677 -0.024898412 -0.00496444 -0.00037484503 0.017912112 -0.017996145 -0.014636909 0.0009814508
0.013510871 0.027372958 0.001627682 -0.024619358 0.0071934005 0.017356854 -0.012169467 0.034052406
0.0053652693 0.005783691 0.03374333 -0.0034388434 -0.011221445 0.01908766 0.0038676704 -0.017914878
-0.016847495 0.019735932 0.040570963 0.0073548164 -0.027436227 -0.014526281 -0.011049174 0.0080820415
-0.025927272 -0.0060595116 0.065147474 0.009221228 -0.019935576 -0.016223906 -0.040907495 -0.02618285
0.0025763768 -0.02505847 -0.0038852543 -0.008860201 0.025016036 0.001006648 -0.0027929202 0.017930431
-0.012446092 0.014455363 -0.023566697 -0.0077346554 -0.021129744 -0.019495964 -0.0018311249 -0.0061828177
-0.012287144 -0.019051896 0.038682315 -0.016631644 0.04973223 -0.0058400054 0.028175158 -0.014285026
-0.009807352 0.029744446 0.02814585 -0.0020294837 0.011843396 -0.0016113336 0.0022008668 -0.0014712696
0.00949051 -0.017243184 -0.014105303 0.024810003 0.00082538306 0.028496359 0.004796751 -0.023950977
0.0070991353 0.010406127 0.018118985 0.0005769589 0.00018831425 -0.0334 0.004228978 -0.0045268494
-0.018975671 -0.012245781 -0.00602415 -0.0133668585 0.006407104 0.049608372 -0.012619458 -0.021995293
-0.04661063 0.019511644 0.0067556505 -0.027608374 -0.0035083713 -0.0013242802 0.008278494 -0.009140679
-0.018503964 0.019852698 -0.013499045 -0.002942645 0.0010385008 -0.030074494 0.0039118174 0.0019180533

distilbert.embeddings.position_embeddings.weight f4 [512, 2]
00000000: 0000 0000 0000 803f a46a 573f 4051 0a3f
00000010: b7c7 683f 3311 d5be c381 103e 2670 7dbf
00000020: cfbd 41bf 3055 27bf 107c 75bf 2c3c 913e
00000030: 8c0f 8fbe b8cd 753f 4630 283f bdff 403f
00000040: 9546 7d3f f6fd 14be 3201 d33e d53f 69bf
00000050: f844 0bbf 64cd 56bf 5cff 7fbf 7205 913b
00000060: d85c 09bf d006 583f 2220 d73e 6f4e 683f
00000070: 7298 7d3f d704 0c3e 4479 263f e87a 42bf
00000080: 1068 93be 2c29 75bf 251e 76bf 36e2 8cbe
00000090: b340 40bf 840a 293f 6979 193e bf1b 7d3f
000000a0: c8b6 693f 22f0 d03e 102f 563f fc37 0cbf
000000b0: 1505 11bc 6ffd 7fbf e7a1 58bf bf67 08bf
000000c0: fcd3 67bf fe2d d93e 3887 07be 78bf 7d3f
000000d0: 0837 433f 819c 253f 0ed5 743f 3893 95be
000000e0: 2ab4 8a3e 576d 76bf e9e3 29bf b380 3fbf
000000f0: a4ef 7cbf 18f4 1d3e 06de cebe 8e2c 6a3f
00000100: 4d2a 0d3f aa8f 553f 39fa 7f3f b786 59bc
00000110: f771 073f e73b 59bf c23a dbbe 5f58 67bf
00000120: 38e5 7dbf ea08 03be eabe 24bf 2df2 433f
00000130: 9fbd 973e b57f 743f 4bbb 763f 6c85 883e
00000140: bcbf 3e3f 74bc 2abf fb6d 22be 44c2 7cbf
00000150: 28a1 6abf e0ca ccbe 31ef 54bf e81b 0e3f
00000160: a103 913c bbf5 7f3f d0d4 593f 807b 063f
00000170: 9adb 663f 6d46 ddbe e813 fd3d b309 7ebf
00000180: 56ac 44bf 80e0 23bf 2229 74bf 44e7 993e
00000190: ff55 86be 0308 773f 2494 2b3f d1fd 3d3f
000001a0: a093 7c3f 0ee7 26be b4b6 ca3e 9514 6bbf
000001b0: cd0c 0fbf a64d 54bf f4ef 7fbf 2c43 b53c
000001c0: 5e84 05bf a26c 5a3f fd50 df3e ac5d 663f
000001d0: e72c 7e3f b714 f43d 4301 233f 8365 45bf
000001e0: 2310 9cbe 56d1 73bf 7f53 77bf e625 84be
000001f0: f23a 3dbf f76a 2c3f 4b5f 2b3e b863 7c3f
00000200: d486 6b3f 83a1 c83e 0bab 533f fafc 0fbf
00000210: ce81 d9bc e5e8 7fbf 5b03 5bbf 908c 04bf
00000220: 97de 65bf 6d5a e13e 4d14 ebbd d54e 7e3f
00000230: b31d 463f 3521 223f 5178 733f 3a38 9ebe
00000240: 23f5 813e bc9d 77bf ed40 2dbf 2077 3cbf
00000250: 8c32 7cbf acd6 2f3e 518b c6be e4f7 6b3f
00000260: 6eec 103f 6107 533f 8ee0 7f3f 5abf fdbc
00000270: 1894 033f fc98 5bbf bc62 e3be 5a5e 65bf
00000280: 7d6f 7ebf b512 e2bd 5740 21bf e4d4 463f
00000290: 865f a03e 141e 733f bce6 773f 7287 7f3e
000002a0: 5cb2 3b3f 0516 2ebf 2b4d 34be 1c00 7cbf
000002b0: c667 6cbf 1f74 c4be a762 52bf 28db 113f
000002c0: d0fd 103d edd6 7f3f 822d 5c3f f69a 023f
000002d0: f7dc 643f e869 e5be fb0f d93d de8e 7ebf
000002e0: 178b 47bf aa5e 20bf 9ec2 72bf 0486 a23e
000002f0: 5623 7bbe 7d2e 783f 3dea 2e3f a8ec 3a3f
00000300: 68cc 7b3f c2c2 38be f25b c23e 78d6 6cbf
00000310: 28c9 12bf e0bc 51bf 05cc 7fbf 381b 233d
00000320: 2ea1 01bf eec0 5c3f ed6f e73e 6e5a 643f
00000330: f8ac 7e3f 2a0c d03d 2f7c 1f3f 4940 48bf
00000340: b1ab a4be f165 72bf 0075 78bf f8bd 76be
00000350: 0326 3abf 95bd 2f3f 6d37 3d3e 7197 7b3f
00000360: fa43 6d3f cb42 c03e 0b16 513f 6ab6 13bf
00000370: cf37 35bd d4bf 7fbf 3e53 5dbf bfa6 00bf
00000380: c0d6 63bf c874 e93e 4f07 c7bd cbc9 7e3f
00000390: 7af4 483f e798 1e3f 0d08 723f 8bd0 a6be
000003a0: 5d57 723e 44ba 78bf 0b90 30bf 6f5e 39bf
000003b0: 3861 7bbf 25ab 413e ae28 bebe 4cb0 6d3f
000003c0: efa2 143f 2a6e 503f 5bb2 7f3f 7e53 47bd
000003d0: 5557 ff3e 73e4 5dbf 7878 ebbe ee51 63bf
000003e0: 58e5 7ebf 7301 bebd d4b4 1dbf a9a7 493f
000003f0: 8ff4 a83e f2a8 713f 49fe 783f 8bef 6d3e
0.0 1.0 0.84147096 0.5403023 0.9092974 -0.41614684 0.14112 -0.9899925
-0.7568025 -0.6536436 -0.9589243 0.2836622 -0.2794155 0.96017027 0.6569866 0.75390226
0.98935825 -0.14550003 0.4121185 -0.91113025 -0.5440211 -0.8390715 -0.9999902 0.004425698
-0.53657293 0.84385395 0.42016703 0.9074468 0.9906074 0.13673721 0.65028787 -0.7596879
-0.2879033 -0.9576595 -0.96139747 -0.27516335 -0.75098723 0.6603167 0.1498772 0.9887046
0.9129453 0.40808207 0.8366556 -0.54772925 -0.008851309 -0.99996084 -0.84622043 -0.53283304
-0.9055784 0.42417902 -0.13235176 0.99120283 0.76255846 0.6469193 0.95637596 -0.29213881
0.2709058 -0.9626059 -0.6636339 -0.74805754 -0.9880316 0.15425146 -0.40403765 0.91474235
0.5514267 0.8342234 0.99991184 -0.013276747 0.5290827 -0.8485703 -0.42818266 -0.9036922
-0.99177885 -0.12796369 -0.6435381 0.76541406 0.29636857 0.95507365 0.96379536 0.26664293
0.74511313 -0.66693807 -0.15862267 -0.98733926 -0.91652155 -0.3999853 -0.8317748 0.5551133
0.017701926 0.9998433 0.8509035 0.52532196 0.90178835 -0.43217793 0.123573124 -0.9923355
-0.76825464 -0.64014435 -0.95375264 0.30059254 -0.26237485 0.964966 0.6702292 0.7421542
0.9866276 -0.16299078 0.39592516 -0.9182828 -0.5587891 -0.8293098 -0.99975514 0.022126757
-0.521551 0.8532201 0.43616477 0.8998668 0.99287266 0.119180135 0.636738 -0.7710802
-0.3048106 -0.95241296 -0.9661178 -0.25810164 -0.7391807 0.67350715 0.1673557 0.9858966
0.92002606 0.39185724 0.82682866 -0.56245387 -0.026551154 -0.99964744 -0.85551995 -0.5177698
-0.8979277 0.44014302 -0.114784814 0.9933904 0.7738907 0.6333192 0.95105463 -0.30902272
0.25382337 -0.9672506 -0.67677194 -0.7361927 -0.9851463 0.17171735 -0.38778165 0.92175126
0.56610763 0.82433134 0.9995202 -0.030975033 0.5139785 -0.8578031 -0.44411266 -0.89597094
-0.9938887 -0.11038724 -0.629888 0.77668595 0.3132288 0.9496777 0.9683645 0.24954012
0.7331903 -0.6800235 -0.17607562 -0.98437667 -0.92345846 -0.38369843 -0.8218178 0.5697503
0.035398304 0.99937326 0.8600694 0.510177 0.89399666 -0.44807363 0.10598751 -0.9943675
-0.7794661 -0.62644446 -0.9482821 0.3174287 -0.24525198 0.96945935 0.6832617 0.7301736
0.98358774 -0.18043044 0.37960774 -0.92514753 -0.5733819 -0.81928825 -0.99920684 0.03982088
-0.50636566 0.8623189 0.4520258 0.89200485 0.9948268 0.1015857 0.62298864 -0.7822309
-0.3216224 -0.946868 -0.9705353 -0.24095905 -0.7271425 0.68648654 0.18478175 0.98277956
0.9268185 0.3755096 0.8167426 -0.57700217 -0.044242676 -0.9990208 -0.8645514 -0.50254434
-0.8899956 0.4559691 -0.09718191 0.9952666 0.7849804 0.6195206 0.94543535 -0.3258098
0.23666139 -0.9715922 -0.6896979 -0.7240972 -0.9819522 0.18912943 -0.3714041 0.9284713
0.58061117 0.81418097 0.99881524 -0.04866361 0.49871317 -0.8667671 -0.45990348 -0.8879689
-0.995687 -0.0927762 -0.61604047 0.78771454 0.32999083 0.94398415 0.9726301 0.2323591

distilbert.embeddings.LayerNorm.weight f4 [2]
00000000: 0000 803f 0000 803f
1.0 1.0

distilbert.embeddings.LayerNorm.bias f4 [2]
00000000: 0000 0000 0000 0000
0.0 0.0

distilbert.transformer.layer.0.attention.q_lin.weight f4 [2, 2]
00000000: 8b17 9039 92ac 2d3c d6b2 34bc 60c4 c2bc
0.0002748336 0.010600226 -0.011028966 -0.02377528

distilbert.transformer.layer.0.attention.q_lin.bias f4 [2]
00000000: 0000 0000 0000 0000
0.0 0.0

distilbert.transformer.layer.0.attention.k_lin.weight f4 [2, 2]
00000000: a422 323c d46e 7d3b b858 6e3b 43a4 e5bc
0.010872517 0.0038670795 0.0036368798 -0.028032428

distilbert.transformer.layer.0.attention.k_lin.bias f4 [2]
00000000: 0000 0000 0000 0000
0.0 0.0

distilbert.transformer.layer.0.attention.v_lin.weight f4 [2, 2]
00000000: 2f61 87bb 00cd a7bc 7334 ef3a d1be 153d
-0.0041314582 -0.020483494 0.0018249884 0.03655893

distilbert.transformer.layer.0.attention.v_lin.bias f4 [2]
00000000: 0000 0000 0000 0000
0.0 0.0

distilbert.transformer.layer.0.attention.out_lin.weight f4 [2, 2]
00000000: 327b ab3c b5ba 06bc 5450 b8bb 9aff 893c
0.020932768 -0.008223225 -0.0056248102 0.016845513

distilbert.transformer.layer.0.attention.out_lin.bias f4 [2]
00000000: 0000 0000 0000 0000
0.0 0.0

distilbert.transformer.layer.0.sa_layer_norm.weight f4 [2]
00000000: 0000 803f 0000 803f
1.0 1.0

distilbert.transformer.layer.0.sa_layer_norm.bias f4 [2]
00000000: 0000 0000 0000 0000
0.0 0.0

distilbert.transformer.layer.0.ffn.lin1.weight f4 [2, 2]
00000000: 4ba0 a6bb 7e07 f43c 322d b7bc 31a2 53bc
-0.0050850264 0.029788729 -0.022360418 -0.012917087

distilbert.transformer.layer.0.ffn.lin1.bias f4 [2]
00000000: 0000 0000 0000 0000
0.0 0.0

distilbert.transformer.layer.0.ffn.lin2.weight f4 [2, 2]
00000000: 4b80 e43c fbaa c03c cf42 13bc af06 513d
0.027893206 0.02351903 -0.008988096 0.051031765

distilbert.transformer.layer.0.ffn.lin2.bias f4 [2]
00000000: 0000 0000 0000 0000
0.0 0.0

distilbert.transformer.layer.0.output_layer_norm.weight f4 [2]
00000000: 0000 803f 0000 803f
1.0 1.0

distilbert.transformer.layer.0.output_layer_norm.bias f4 [2]
00000000: 0000 0000 0000 0000
0.0 0.0

distilbert.transformer.layer.1.attention.q_lin.weight f4 [2, 2]
00000000: d7a8 243c db8a bcbc 1333 683c 3dd6 03bc
0.01005002 -0.02301543 0.014172333 -0.008046684

distilbert.transformer.layer.1.attention.q_lin.bias f4 [2]
00000000: 0000 0000 0000 0000
0.0 0.0

distilbert.transformer.layer.1.attention.k_lin.weight f4 [2, 2]
00000000: 66a8 26bd 37f5 833c 2137 f33c c0fe 57bc
-0.04068794 0.016108138 0.029689373 -0.013183296

distilbert.transformer.layer.1.attention.k_lin.bias f4 [2]
00000000: 0000 0000 0000 0000
0.0 0.0

distilbert.transformer.layer.1.attention.v_lin.weight f4 [2, 2]
00000000: 40e5 be3c 8806 a23c a1d7 413c de2b 383d
0.023302674 0.019778505 0.011831195 0.04496371

distilbert.transformer.layer.1.attention.v_lin.bias f4 [2]
00000000: 0000 0000 0000 0000
0.0 0.0

distilbert.transformer.layer.1.attention.out_lin.weight f4 [2, 2]
00000000: b19e 493c a9e0 7b3b 3d10 aebb ac67 c63b
0.012305901 0.0038433468 -0.0053119943 0.006054839

distilbert.transformer.layer.1.attention.out_lin.bias f4 [2]
00000000: 0000 0000 0000 0000
0.0 0.0

distilbert.transformer.layer.1.sa_layer_norm.weight f4 [2]
00000000: 0000 803f 0000 803f
1.0 1.0

distilbert.transformer.layer.1.sa_layer_norm.bias f4 [2]
00000000: 0000 0000 0000 0000
0.0 0.0

distilbert.transformer.layer.1.ffn.lin1.weight f4 [2, 2]
00000000: f0d8 0a3c 2024 b9ba f702 22bc 2efb 8abc
0.0084745735 -0.0014125146 -0.009888402 -0.016965475

distilbert.transformer.layer.1.ffn.lin1.bias f4 [2]
00000000: 0000 0000 0000 0000
0.0 0.0

distilbert.transformer.layer.1.ffn.lin2.weight f4 [2, 2]
00000000: 4927 eabb f045 09bd 9b4f c5bb 2bbc 3d3c
-0.0071457964 -0.033513963 -0.0060214526 0.011580507

distilbert.transformer.layer.1.ffn.lin2.bias f4 [2]
00000000: 0000 0000 0000 0000
0.0 0.0

distilbert.transformer.layer.1.output_layer_norm.weight f4 [2]
00000000: 0000 803f 0000 803f
1.0 1.0

distilbert.transformer.layer.1.output_layer_norm.bias f4 [2]
00000000: 0000 0000 0000 0000
0.0 0.0

qa_outputs.weight f4 [2, 2]
00000000: 6139 fcbb c6d3 053b aa4c e0bc a7a0 903c
-0.00769727 0.0020420416 -0.027380306 0.01765473

qa_outputs.bias f4 [2]
00000000: 0000 0000 0000 0000
0.0 0.0
